Website/back-end/keras_mlp.tflite (tflite, 3700 bytes, 8 tensors)

sequential_14/dense_59/BiasAdd/ReadVariableOp f4 [2]
0	0x3fc42155	1.5322672
1	0xbfbf8063	-1.4961056

sequential_14/dense_58/BiasAdd/ReadVariableOp f4 [10]
0	0xbfe80968	-1.812787
1	0x3fb87e6d	1.4413582
2	0xbfb95880	-1.4480133
3	0x3e6f4c7d	0.23369022
4	0x3fcada34	1.584784
5	0x4014c4fa	2.3245225
6	0xbf3fce4d	-0.74924165
7	0x3fbfb29a	1.497638
8	0xbe6cc3b7	-0.23121534
9	0xbe9784e5	-0.29593578

sequential_14/dense_57/BiasAdd/ReadVariableOp f4 [15]
0	0x3f113c30	0.56732464
1	0x3eadaeca	0.33922416
2	0x00000000	0.0
3	0xbf0667c3	-0.5250208
4	0xbf8c30b5	-1.0952364
5	0x3f9929e1	1.1965905
6	0xbf381c32	-0.7191802
7	0x3f54df99	0.8315368
8	0x400f5dd4	2.2401018
9	0x3f4291d0	0.7600374
10	0xbf14b6df	-0.5809154
11	0x3ec583b6	0.3857705
12	0x3f7f15d9	0.9964271
13	0x00000000	0.0
14	0x3f6a7049	0.91577584

sequential_14/dense_56/BiasAdd/ReadVariableOp f4 [3]
0	0x3f8f0859	1.1174423
1	0xbf9ba4e2	-1.2159693
2	0x3fa35c2e	1.2762506

sequential_14/dense_56/MatMul f4 [3, 10]
0	0x3faceee6	1.3510406
1	0x3f798038	0.9746127
2	0xbfc0026f	-1.5000743
3	0xbcdbc853	-0.02682892
4	0xbf3f047b	-0.7461621
5	0xbd08ed90	-0.033429682
6	0x3e911731	0.28338006
7	0x3fc41104	1.5317693
8	0x3f4e6b42	0.8063241
9	0xbdeba4d5	-0.115060486
10	0xbf99763e	-1.198921
11	0xbfa87030	-1.3159237
12	0x41076dca	8.464304
13	0x3c0f1561	0.0087331245
14	0x3f0d7697	0.5525908
15	0xbce05a69	-0.02738686
16	0x402dcb6f	2.7155416
17	0xbf4e496f	-0.805808
18	0xbf0e85a4	-0.5567267
19	0x3b3e8540	0.0029071122
20	0x3fb9383b	1.4470285
21	0x3e903881	0.2816811
22	0x3ee7c968	0.45270848
23	0xbe50156e	-0.20320675
24	0xbf034b78	-0.5128703
25	0xbd1d9231	-0.038469497
26	0x3efbbf71	0.49169496
27	0x3f3fff9b	0.749994
28	0x4001cc43	2.0280921
29	0x3e819e3e	0.25316042

sequential_14/dense_57/MatMul f4 [15, 3]
0	0xbbe2f039	-0.0069256094
1	0xbb9934b2	-0.004675471
2	0x3ea68fb7	0.3253152
3	0xbeb680dc	-0.35645187
4	0xbbb99fdd	-0.005664809
5	0x3e368b1a	0.178265
6	0xbe1b34fe	-0.15156934
7	0xbedd8394	-0.4326445
8	0xbea11b98	-0.31466365
9	0xbd3d4808	-0.046211272
10	0xbce64cd3	-0.028112805
11	0xbf0d2e51	-0.551488
12	0x3ec2901a	0.38000566
13	0x3e991f5a	0.29906732
14	0x3e89ba31	0.26899865
15	0x3dcd9d10	0.10039723
16	0x3e4df099	0.20111312
17	0x3e2ec045	0.17065533
18	0xbf6ff46a	-0.9373232
19	0x3e59f556	0.21284994
20	0xbe6990e2	-0.22809175
21	0x3e989377	0.29800007
22	0x3d9f8cd5	0.077905335
23	0x3debd34d	0.11514912
24	0x3ea203b7	0.3164346
25	0xbef2204b	-0.47290263
26	0x3e767c38	0.24070823
27	0x3e0db65f	0.138391
28	0xbf261a85	-0.64884216
29	0xbea762fe	-0.32692713
30	0xbb934974	-0.0044948403
31	0x3dd58da7	0.10427409
32	0xbdfd7703	-0.12376215
33	0x3af44afa	0.0018638067
34	0xbe8a4f3f	-0.27013585
35	0x3f88b02e	1.0678766
36	0x3fd4ed78	1.663497
37	0xbcba928a	-0.022774953
38	0x3fd59e18	1.6688871
39	0xbf09b506	-0.53791845
40	0xbef19d7b	-0.4719046
41	0xbed37afc	-0.41304767
42	0xbba0298b	-0.004887765
43	0xbaa7a56b	-0.0012790387
44	0x3ec0b5eb	0.37638792

sequential_14/dense_58/MatMul f4 [10, 15]
0	0xbe5e334d	-0.21699257
1	0x3cf50b59	0.029912638
2	0x3eac0857	0.33600113
3	0x3dcb2bd1	0.09920467
4	0xbed21db4	-0.41038287
5	0x3ec7a81b	0.38995442
6	0xbe95c033	-0.292482
7	0x3ecd1898	0.40057826
8	0x3e7779e2	0.24167588
9	0x3de3aa2d	0.11116443
10	0x3e21d92a	0.15805498
11	0x3e0d7cb1	0.13817097
12	0xbe3cab1d	-0.1842465
13	0x3ecd3779	0.40081385
14	0x3e3aa9ea	0.1822888
15	0x3e09d0a5	0.13458498
16	0x3ede9b8e	0.43478054
17	0x3e1b232a	0.15150133
18	0x3eb1d3b0	0.34731817
19	0xbd2e5f1a	-0.042571165
20	0xbab607fc	-0.0013887878
21	0x3dfcc211	0.12341703
22	0xbda014eb	-0.0781649
23	0x3b964d01	0.0045868163
24	0x3e584b3f	0.21122454
25	0xbe66fd06	-0.22557458
26	0x3dd9b8bc	0.106309384
27	0xbdac2a17	-0.084064655
28	0x3de193f4	0.11014548
29	0x3edf8785	0.4365808
30	0x3ed6881a	0.41900712
31	0x3e3b0428	0.18263304
32	0x3ee8457d	0.45365515
33	0x3e75ff74	0.24023229
34	0x3e9e2509	0.3088763
35	0x3e270c34	0.16313249
36	0xbdde3cd2	-0.10851444
37	0xbe92e452	-0.2868982
38	0xbf3f4045	-0.7470744
39	0x3ef63b69	0.480922
40	0x3e08215a	0.13293973
41	0x3e0f935d	0.14021058
42	0x3ba1ed2a	0.0049416022
43	0x3bafd8c0	0.005366415
44	0x3e7c4881	0.24637033
45	0x3e1467ab	0.14492671
46	0x3e88e18d	0.26734582
47	0xbe6ef91c	-0.23337215
48	0xbe4f77bf	-0.20260523
49	0xbebc8722	-0.36821848
50	0xbd28cc0d	-0.041210223
51	0x3dfd8fa8	0.12380916
52	0xbdb190a1	-0.08670164
53	0xc03ca817	-2.9477594
54	0xbe9dd30e	-0.30825084
55	0x3e0e134f	0.13874553
56	0x3e5e0e0b	0.21685044
57	0xbf11e24c	-0.56985927
58	0x3e914605	0.28373733
59	0x3eb74787	0.3579676
60	0x3ed0e55b	0.40799984
61	0xbd9c4797	-0.07630842
62	0xbad3ba00	-0.0016153455
63	0x3eed2b96	0.46322316
64	0xbeb64d74	-0.35605967
65	0x3ebc3719	0.36760786
66	0x3e0f0f5a	0.139707
67	0x3e644c50	0.22294736
68	0x3e7dd978	0.24789989
69	0x3eb3cd31	0.35117486
70	0xbec8cdea	-0.392196
71	0xbcddba32	-0.027066324
72	0x3ba4c40a	0.0050282525
73	0x3e9fc309	0.31203488
74	0x3efe264b	0.4963859
75	0x3eeb0c13	0.4590765
76	0x3e2fbb27	0.17161237
77	0x3efa0b2b	0.48836645
78	0xbeae40cd	-0.34033814
79	0xbeb3f983	-0.351513
80	0x3ea03417	0.3128974
81	0xbe8d3155	-0.275767
82	0xbd953912	-0.07286276
83	0x4027ba2a	2.6207376
84	0x3dd185ae	0.102305755
85	0x3ec9b587	0.39396307
86	0x3f23b9ac	0.6395519
87	0x3e06c65e	0.13161609
88	0xbe367954	-0.1781972
89	0x3e550b3d	0.20805068
90	0xbcdd601f	-0.027023373
91	0xbd5125c7	-0.051061418
92	0xbde65508	-0.11246687
93	0x3d5f5f57	0.054534283
94	0xbe34f2a4	-0.17670685
95	0x3eba6646	0.36406153
96	0x3de76681	0.11298848
97	0x3e9dd80b	0.3082889
98	0xbfab0346	-1.3360374
99	0xbeab14e9	-0.3341439
100	0xbeac3079	-0.33630732
101	0xbf7535c6	-0.95785177
102	0x3e230919	0.15921439
103	0x3dc94edc	0.09829494
104	0xbee19b09	-0.44063595
105	0xbcb67aee	-0.022275414
106	0x3d2132e7	0.039355185
107	0x3eed057d	0.4629325
108	0xbe4ec92e	-0.20193931
109	0x3ce5bc13	0.028043782
110	0x3e9acbc8	0.30233598
111	0xbee60c28	-0.4493115
112	0x3dbe0bac	0.0927957
113	0x3e054ba8	0.13017142
114	0x3e0a2bfb	0.1349334
115	0xbd75759c	-0.059926614
116	0x3ee92029	0.4553235
117	0xbcfc6fb9	-0.030814992
118	0x3ea91869	0.33026436
119	0x3eff4a51	0.49861386
120	0x3e806c52	0.25082642
121	0x3ecb8c04	0.3975526
122	0xbe357c3c	-0.17723173
123	0xbdb84202	-0.08996965
124	0xbe8a1375	-0.2696797
125	0x3eb18422	0.34671122
126	0xbec5a91f	-0.38605592
127	0xbed26284	-0.41090786
128	0xc0017cd8	-2.0232449
129	0x3e2c7016	0.16839632
130	0x3e9822d4	0.29714072
131	0x3e01f663	0.12691645
132	0xbec513ac	-0.3849157
133	0xbee1808c	-0.44043386
134	0x3daaec10	0.083458066
135	0x3f01ddae	0.5072888
136	0x3edabb28	0.42720914
137	0xbef9a69a	-0.4875992
138	0x3e7e109f	0.24811028
139	0x3d17a462	0.037022002
140	0xbe5e05f9	-0.21681966
141	0x3e814027	0.25244257
142	0xbcf58063	-0.029968446
143	0xbe9a83a1	-0.3017855
144	0x3e110c47	0.1416484
145	0x3c9cef9e	0.019157227
146	0x3ef55fa1	0.47924522
147	0x3d76e557	0.06027731
148	0xbed11212	-0.408341
149	0xbe69bfca	-0.22827068

sequential_14/dense_59/MatMul f4 [2, 10]
0	0xbf1e773f	-0.61900705
1	0x3e3af692	0.18258122
2	0xbe94af87	-0.29040167
3	0x3e0239ad	0.12717314
4	0x3e14f1a6	0.14545307
5	0x3ecd8168	0.40137792
6	0xbe75edef	-0.24016546
7	0x3eac5b89	0.33663586
8	0xbeba4447	-0.36380216
9	0xbe4d4d8d	-0.20049115
10	0x3d3a0027	0.0454103
11	0xbce4c6ac	-0.027926765
12	0x3eda41a1	0.42628196
13	0x3ea83fc9	0.32861164
14	0xbf0691c9	-0.525662
15	0xbed069e3	-0.40705785
16	0x3dccfc98	0.10009116
17	0x3d448454	0.04797776
18	0x3e0ad660	0.1355834
19	0xbe8f60cd	-0.2800354
